android/app/src/main/assets/real_stock_recommendation_model.tflite (tflite, 11824 bytes, 6 tensors)

arith.constant f4 [3, 32]
000000 ec 67 53 be b8 79 58 bd 01 64 41 be 8c dc 0c be
       -0.20645112 -0.052850455 -0.18885805 -0.13756007
000010 5c a9 df 3d ea 43 52 3e b8 82 82 3e 48 69 18 3d
       0.109209746 0.2053372 0.25490355 0.03720978
000020 84 98 d3 3d f1 74 cc bd a1 cc 9d 3e 1b 2c 96 3e
       0.103318244 -0.09983242 0.30820182 0.29330525
000030 a0 91 11 bd 3a 44 9a be b4 46 89 be c1 d1 96 3e
       -0.03553927 -0.30130178 -0.26811755 0.29456905
000040 e4 13 22 be d8 e4 ab 3e 5a 85 24 be c0 b4 0b bc
       -0.158279 0.3357303 -0.16066495 -0.008526981
000050 40 be 38 3d 34 3e d2 3d f2 37 5d 3e 6c 7a 9e bd
       0.04510331 0.102657706 0.21603373 -0.07738194
000060 35 a2 3d 3e 04 f5 c0 be 0a dd 97 be 70 69 7e bd
       0.18518908 -0.37686932 -0.29660827 -0.06211227
000070 3d 6a 22 3e 90 b0 a0 bd dc 3b 86 3d 89 ef 91 3e
       0.15860839 -0.078461766 0.06554386 0.28503063
000080 b5 2d fd 3d c7 8c 3f be 6a 81 0d 3e e5 7a 7a be
       0.123622335 -0.18706046 0.13818899 -0.24460943
000090 33 56 86 be 00 80 fc 3c 5b 7e b9 3e 02 25 ff 3d
       -0.2623764 0.030822754 0.36229214 0.124582306
0000a0 7f 35 cb be f8 35 76 3e b0 81 6f be e0 82 68 3e
       -0.39689252 0.24044025 -0.23389316 0.22706175
0000b0 54 5d eb bd 6d 37 95 3e 4e 65 39 be 2c 1f e3 3d
       -0.1149241 0.2914385 -0.18105051 0.1108993
0000c0 47 6c 64 be 79 c5 24 3e a0 69 64 3d 61 18 9b 3e
       -0.2230693 0.16090955 0.055764794 0.30292037
0000d0 ff 5d d8 3b 7a 79 b2 be 31 a6 b5 3e db ac 1e be
       0.006603002 -0.34858304 0.35478356 -0.15495627
0000e0 36 ac 35 be f0 99 29 bd 2c d5 d5 bd 88 27 72 3d
       -0.17741475 -0.041406572 -0.1044105 0.05911973
0000f0 90 6c 75 be 28 72 49 bd 26 7b ad 3e 4d 99 e2 3d
       -0.23967195 -0.049181134 0.33883017 0.11064396
000100 da 21 82 be a0 36 49 bd e6 ad 59 3e 42 65 55 be
       -0.25416452 -0.04912436 0.21257743 -0.20839408
000110 83 4e 81 3e e8 b3 39 3d f6 f4 e7 3d 8d 29 33 be
       0.25255212 0.045337588 0.113260195 -0.17496319
000120 c8 1b f2 bd 6c d8 b1 3e 25 93 c6 3e 04 b1 77 3c
       -0.11821705 0.3473543 0.38784137 0.015117887
000130 51 0d cf be a0 e5 50 bd 7e eb 4a 3e bc ff b1 3d
       -0.40439847 -0.051000237 0.19816396 0.086913556
000140 bc da de bd a6 cd 20 bd 7b b2 b8 3e fc 86 ca 3d
       -0.10881564 -0.03925862 0.3607367 0.098890275
000150 39 f7 40 3e 80 58 af be ab 4b 9d 3e eb 71 c7 3e
       0.18844308 -0.34247208 0.30721793 0.389541
000160 05 44 cc 3d 04 ea 00 be 56 9a 3e 3e 88 8a 8e 3d
       0.09973911 -0.1258927 0.18613562 0.069600165
000170 9c 9c 93 3e 10 38 4a 3d 8f 9a 58 be d8 30 42 be
       0.2883042 0.04936987 -0.2115271 -0.18963945

arith.constant1 f4 [32, 64]
000000 40 9e 3d 3b c4 11 49 be f4 df 13 be 90 b9 70 3d
       0.0028933436 -0.19635683 -0.144409 0.058770716
000010 28 45 24 3e 28 b8 e5 bd 38 a2 7e 3e c8 b7 e1 3d
       0.16042006 -0.11216766 0.24866569 0.110213816
000020 a2 c9 12 3d a1 62 2a 3e 60 97 90 bd 34 53 02 be
       0.035836823 0.16639186 -0.070601225 -0.12727052
000030 f6 40 3c 3d 7e ba 99 bd ae be 5b bd 1a 67 19 3e
       0.04596039 -0.07506274 -0.053648643 0.14980736
000040 08 d1 aa bd 10 77 ce 3d a8 09 f7 bd 9f 6b 03 3e
       -0.08340651 0.10081303 -0.12062389 0.12834023
000050 70 fe 00 bd 28 2d e3 3d 9c e9 3e be ba af 14 be
       -0.03149265 0.11092597 -0.18643802 -0.1452016
000060 0d 7d 53 3e b0 29 48 bd 3d c5 4d 3b 77 58 68 3e
       0.20653172 -0.04886788 0.003139808 0.22689997
000070 2c 1c 14 3e 85 01 b6 3d 08 83 63 be a9 3d 16 3e
       0.14463872 0.088870086 -0.22217953 0.14671959
000080 b0 1d 2f 3e 79 03 ba 3b 6a c1 0d be bb 9b 8a bd
       0.17101169 0.0056766835 -0.13843313 -0.067679845
000090 07 b0 39 3e 74 57 62 3c 00 be 53 3d b0 69 59 bd
       0.18133555 0.013814796 0.05169487 -0.053079307
0000a0 4f 90 45 be 5b bd fc 3d 2e bb 47 be 60 80 7f bd
       -0.1929333 0.12340804 -0.19504997 -0.062378287
0000b0 d4 50 83 3d 40 eb 96 3d 8c f2 15 be 65 db f4 bc
       0.06411901 0.07369089 -0.14643306 -0.029889772
0000c0 75 9d 98 3b 74 70 44 3d 00 af 6f be 28 6a b4 bd
       0.004657442 0.047958806 -0.23406601 -0.0880931
0000d0 bc 71 2e be 52 78 4b 3e 74 29 13 be 3c 10 58 be
       -0.17035574 0.19870117 -0.14371282 -0.21099943
0000e0 40 09 1f 3d 00 b4 ef bd 9c fd 7b 3e 80 69 11 bd
       0.03882718 -0.11704254 0.24608463 -0.035501003
0000f0 20 e0 1a be ee 1f a4 bd 18 18 bb 3d e8 50 df bd
       -0.1512456 -0.080139026 0.09135455 -0.109041035
000100 bc 71 37 3e 68 3f f3 bd 6c ba 6e 3e 20 26 68 3d
       0.1791448 -0.11877328 0.23313302 0.056676984
000110 80 2d 66 3d 80 45 5f bd 00 42 76 bd e0 49 5c be
       0.056195736 -0.05450964 -0.060121536 -0.21512556
000120 c0 9b c3 3d c8 ba 79 be d0 b7 72 3d 04 7e 60 3e
       0.09551191 -0.24387658 0.05925733 0.21923071
000130 50 0f cf 3d 80 be 10 bd 24 6b 65 3e 70 37 29 3e
       0.101103425 -0.035337925 0.22404152 0.16525054
000140 60 75 41 3d 40 84 99 3c 30 48 37 3e 78 60 c9 bd
       0.04723108 0.01873982 0.17898631 -0.09832853
000150 c0 a2 40 bd f8 d8 a6 bd 10 7c bb bd 7c 19 17 3e
       -0.04703021 -0.08146852 -0.091545224 0.14755815
000160 b0 cd 4c 3d 74 fe 01 3e 24 e6 19 3e d0 fc 42 3d
       0.050000846 0.12694722 0.15029198 0.047604382
000170 2c f5 6c 3e b0 7f cf 3d 88 44 45 be f8 9c f2 bd
       0.231404 0.10131776 -0.19264424 -0.11846346
000180 80 e3 66 3d e0 89 bf 3d 64 b6 21 3e 00 45 5a bd
       0.056369305 0.093524694 0.15792233 -0.05328846
000190 00 e0 d6 bd 9c c1 62 be 40 3c 26 bc 80 3a 8c bb
       -0.10491943 -0.22144169 -0.010146201 -0.0042794347
0001a0 10 78 5d 3e 38 68 d9 bd a0 7b 00 3d 80 2a e6 bb
       0.21627831 -0.10615581 0.031367898 -0.0070241094
0001b0 ac f3 22 be 14 31 5b 3e 88 4b bf bd e0 fa 7d 3d
       -0.15913266 0.2140544 -0.09340578 0.06200683
0001c0 38 55 e7 bd 20 c8 3d 3d e8 eb 41 3e 5c c3 60 be
       -0.11295551 0.046333432 0.18937647 -0.21949524
0001d0 84 f4 5b be a0 e4 d2 3d 04 8f 30 be 10 78 87 3d
       -0.21479994 0.10297513 -0.17242056 0.06614697
0001e0 c8 4e 11 be 30 61 13 be 80 df 77 bd 90 4f 77 be
       -0.14190209 -0.14392543 -0.06051588 -0.24151444
0001f0 78 e8 cf 3d 70 3c 3f 3d 90 88 f6 3d d0 b3 7f be
       0.10151762 0.046688497 0.12037766 -0.24970937
000200 0c af 15 3e 40 d7 70 3c 60 20 15 3e 50 e4 34 bd
       0.14617556 0.014699757 0.14563131 -0.04416305
000210 08 15 e0 3d b0 13 39 3e a0 36 ec bc f0 5e 8d bd
       0.109415114 0.18073916 -0.028834641 -0.069028735
000220 a0 21 07 be 10 28 00 3d 30 fa 3e bd 3c da 42 be
       -0.1319642 0.031288207 -0.046625316 -0.19028562
000230 24 5a 55 be 00 1d 23 bd 3c 85 7c 3e 64 91 12 3e
       -0.20835167 -0.03982258 0.246602 0.14313275
000240 f0 ef 17 3e e0 cd 67 bd c8 fb 74 3e a8 f4 c9 3d
       0.14837623 -0.056592822 0.23924172 0.098611176
000250 bc de 5c be c0 aa 72 3c 80 54 33 3c d4 6c 2b be
       -0.21569341 0.014811218 0.010945439 -0.16740733
000260 9c d1 47 be 84 07 02 be 00 a3 41 3e 38 73 71 be
       -0.19513553 -0.1269818 0.18909836 -0.23579109
000270 38 86 9d bd f0 51 45 3e f8 53 3d 3e 80 3b 91 3c
       -0.07691616 0.19269538 0.18489063 0.017728567
000280 ac 08 18 be c8 ee d3 3d 00 4e c7 ba 20 1c ae bc
       -0.14847058 0.10348278 -0.0015205741 -0.021253645
000290 b0 8b 2d 3e 60 eb 2a be 30 e4 a0 bd f0 97 44 3d
       0.16947818 -0.16691351 -0.07856023 0.04799646
0002a0 00 80 14 be 58 0d 2d be 40 8c 59 3d 28 ad 12 3e
       -0.14501953 -0.16899621 0.05311227 0.14323866
0002b0 f0 33 a5 3d 84 18 1f be 38 6f 10 3e 10 50 1a 3e
       0.08066547 -0.15536696 0.14104927 0.15069604
0002c0 88 75 55 be b0 11 8c 3d 90 8d 1f bd 30 70 d5 bd
       -0.20845616 0.06839311 -0.038953364 -0.10421789
0002d0 18 b0 74 be c0 2e 6e bd b0 71 73 be ec 1b 0a 3e
       -0.238953 -0.058150053 -0.23773837 0.13487214
0002e0 b4 1b 33 be d0 e8 16 bd d8 c5 ae 3d 60 d7 98 3c
       -0.17491037 -0.03684312 0.085338295 0.018657386
0002f0 80 ba b2 3b a0 50 26 bd 90 a7 10 bd 68 eb df bd
       0.0054543614 -0.040604234 -0.03531605 -0.10933572
000300 08 50 7d be a4 43 6f be 90 f3 a7 3d dc 99 48 be
       -0.24737561 -0.23365647 0.08200753 -0.19589943
000310 80 6e 84 3b 98 e4 ab bd d8 27 50 be 60 65 33 bd
       0.004041493 -0.0839321 -0.20327699 -0.04379785
000320 f4 20 01 3e e8 14 12 be c4 ba 42 3e 00 7d 24 3c
       0.12610227 -0.14265788 0.19016558 0.010039568
000330 60 fc 9a bd f0 93 74 bd 78 60 3b 3e e8 38 ee 3d
       -0.07567668 -0.059711397 0.18298519 0.11631948
000340 e0 ea cf bc 80 70 68 be c0 0c 66 3d 60 08 ea bc
       -0.025380552 -0.22699165 0.056164503 -0.028568447
000350 50 3f 40 3e a4 bc 5b be 24 c1 76 3e 48 38 15 be
       0.18774152 -0.2145868 0.24097115 -0.14572251
000360 f0 69 74 bd 3c 09 14 3e 8c 5c 5f be 68 8e f5 3d
       -0.059671342 0.14456648 -0.21812648 0.119900525
000370 80 7f 9b bc 18 62 9d 3d a0 66 36 be b4 5c 6f 3e
       -0.018981695 0.076847255 -0.17812586 0.23375207
000380 a8 1d 6e be 20 b8 f1 3d b8 7d 30 3e 9c da 56 be
       -0.232535 0.11802697 0.17235458 -0.2098183
000390 ec 77 05 3e e8 89 d6 bd 80 17 ee bb 00 73 54 bd
       0.13034028 -0.10475522 -0.007265985 -0.051867485
0003a0 00 1e fd 3a 78 d7 0b 3e ec 6d 66 be 20 34 4c 3d
       0.0019311309 0.13656414 -0.2250287 0.049854398
0003b0 44 58 17 3e 20 6d 97 bc 54 da 60 be 20 ea 63 bd
       0.14779764 -0.018484652 -0.21958286 -0.0556432
0003c0 20 87 2a 3e 80 8a 87 3b 00 ae a5 bb f0 fa 5a be
       0.16653109 0.0041363835 -0.005056143 -0.21384788
0003d0 90 da 4e 3e 38 f3 41 be 04 47 2a 3e 44 cd 66 3e
       0.20200562 -0.18940437 0.16628653 0.2253924
0003e0 e0 56 fb 3c 94 76 48 be 00 d4 5c 3a f0 2a 2d 3e
       0.030681074 -0.19576484 0.00084239244 0.1691091
0003f0 14 13 72 3e e8 46 09 be 1c 27 26 3e 00 4b 59 3c
       0.2364009 -0.13405955 0.16225857 0.01326251

arith.constant2 f4 [3]
000000 1c 6d a7 bb cd d3 7f 3c 8b f9 77 bb
       -0.0051094424 0.015614462 -0.0037837948

sequential_1/dense_1_2/Add/ReadVariableOp f4 [32]
000000 1b 58 7d 3c 00 00 00 00 00 00 00 00 00 00 00 00
       0.0154629005 0.0 0.0 0.0
000010 00 00 00 00 00 00 00 00 33 b8 ff 3b 55 22 c2 3b
       0.0 0.0 0.0078039407 0.005924503
000020 00 00 00 00 c6 b1 2f 3b 00 00 00 00 44 df af 3a
       0.0 0.0026808842 0.0 0.0013417979
000030 00 00 00 00 00 00 00 00 00 00 00 00 00 00 00 00
       0.0 0.0 0.0 0.0
000040 00 00 00 00 94 e1 1f ba 00 00 00 00 00 00 00 00
       0.0 -0.00060989824 0.0 0.0
000050 5e 49 cf bb 00 00 00 00 00 00 00 00 97 62 aa bb
       -0.0063258847 0.0 0.0 -0.005199741
000060 20 3b 6d bc 00 00 00 00 00 00 00 00 00 00 00 00
       -0.0144794285 0.0 0.0 0.0
000070 6e 76 8f bc 00 00 00 00 65 45 4b 3c 50 ad cd 39
       -0.017512526 0.0 0.012406682 0.00039229775

sequential_1/dense_1/Add/ReadVariableOp f4 [64]
000000 76 86 3e bc 00 00 00 00 00 00 00 00 00 00 00 00
       -0.011628738 0.0 0.0 0.0
000010 00 00 00 00 00 00 00 00 00 00 00 00 be 45 83 3b
       0.0 0.0 0.0 0.0040061167
000020 3c 3f 81 bc e0 ca 4f 3c 00 00 00 00 00 00 00 00
       -0.015777223 0.0126826465 0.0 0.0
000030 03 06 83 bc 39 b4 98 3b 51 8d 42 3c d1 a1 79 3c
       -0.015994078 0.004660156 0.011874513 0.015236334
000040 00 00 00 00 00 00 00 00 00 00 00 00 af 9b 4f 3c
       0.0 0.0 0.0 0.012671395
000050 00 00 00 00 00 00 00 00 00 00 00 00 8a 97 3a bc
       0.0 0.0 0.0 -0.011388669
000060 66 f5 b0 3b 00 00 00 00 a4 3a 69 bc ee e9 70 3c
       0.0054003475 0.0 -0.014235172 0.014704211
000070 00 00 00 00 27 97 e8 bb 00 00 00 00 31 eb 79 3c
       0.0 -0.007098097 0.0 0.015253828
000080 00 00 00 00 e3 07 05 bc 5f 7c 65 3c c6 7c 39 3b
       0.0 -0.008119556 0.014006703 0.002830313
000090 7b 23 55 bc 5a e9 76 bc 00 00 00 00 00 00 00 00
       -0.0130089475 -0.015070284 0.0 0.0
0000a0 70 dc ad 3b 49 44 7b bc 05 2c 16 39 00 00 00 00
       0.005305819 -0.015336105 0.00014321513 0.0
0000b0 c5 0e 6d bc 00 00 00 00 5a 21 15 bc 34 87 7a 3c
       -0.014468853 0.0 -0.00910219 0.015291024
0000c0 8f 76 47 bc 6a 11 9a bb 00 00 00 00 00 00 00 00
       -0.012174263 -0.004701783 0.0 0.0
0000d0 00 00 00 00 79 4e 56 3c 00 00 00 00 00 00 00 00
       0.0 0.013080233 0.0 0.0
0000e0 00 00 00 00 00 00 00 00 00 00 00 00 00 00 00 00
       0.0 0.0 0.0 0.0
0000f0 00 00 00 00 c0 43 15 3c 00 00 00 00 8d fc 04 bc
       0.0 0.009110391 0.0 -0.008116853

sequential_1/dense_1/MatMul f4 [64, 3]
000000 a3 1c 14 be 0d fc 16 3e 9b 1c 7d 3e 35 c7 36 be
       -0.14464049 0.14744587 0.24717943 -0.17849429
000010 c9 60 81 be 3e c6 03 3e 9d 94 94 be ec e8 79 be
       -0.25269154 0.12868592 -0.29019633 -0.24405259
000020 7c db dd 3d 48 83 17 3e b4 2d 50 bd 84 cc 36 3e
       0.10832879 0.14796174 -0.050824836 0.17851454
000030 cc 5a 40 3e 82 e2 39 be 7d 9b 88 be 00 a1 92 3b
       0.18784636 -0.18152812 -0.26681128 0.004474759
000040 28 8b 3c bd 39 dd 4b be 4e d6 19 3e 24 f1 78 be
       -0.046031147 -0.19908608 0.15023157 -0.24310738
000050 e8 bd 8d 3e 25 76 03 be 65 af 82 3e 92 94 3f be
       0.2768395 -0.12838037 0.2552444 -0.18709019
000060 4d ec 84 be 0d 24 1f 3e c7 54 83 3e 5c f4 5f 3e
       -0.25961533 0.15541096 0.25650617 0.2187056
000070 82 c8 68 3e 05 11 87 3e 68 8e 5a bd bc 0f 5a bd
       0.22732738 0.26380172 -0.053358465 -0.05323766
000080 3e b0 12 be 12 17 8b 3e 0c 3b e7 bd 20 49 37 3d
       -0.14325044 0.2716604 -0.11290559 0.04474747
000090 ca 0e 1c be 7d f7 80 3e c0 92 83 3e ee c6 10 3e
       -0.15240017 0.2518882 0.256979 0.14138386
0000a0 94 06 d6 3d 8a 40 96 3d 9d 79 6a 3e 3a 3c 3b 3c
       0.104504734 0.073365286 0.22897954 0.011427933
0000b0 33 fb c9 bd 81 bb 96 3e ef bd dc 3d 9d 1e 9e 3e
       -0.098623656 0.2943993 0.107784145 0.3088273
0000c0 80 fc 59 3d 18 4d 00 bd 8c af 5c be 38 ed 75 be
       0.05321932 -0.031323522 -0.21551341 -0.24016273
0000d0 34 63 57 be 30 72 73 3e 88 f3 84 3e 38 71 22 bd
       -0.21033937 0.23774028 0.2596705 -0.039658755
0000e0 52 4a 1f 3e 61 8e 3d 3e 91 df 9f 3d 6b ae 3b bd
       0.15555695 0.18511344 0.07806314 -0.045820635
0000f0 66 a3 e6 bd a3 09 4f be 0a 3b 84 be c0 bc 9f 3c
       -0.112616345 -0.2021852 -0.25826293 0.019499183
000100 20 33 21 bd f6 94 8b 3e 8c a4 23 3e 40 d0 b0 bc
       -0.039355397 0.27262086 0.15980738 -0.021583676
000110 00 1a b3 3a 77 f1 23 3e 8d 20 4f 3d 25 cb fa bd
       0.0013664365 0.1601008 0.050568152 -0.12245778
000120 72 99 33 be 21 c3 f5 3d 0e bd 91 3e 18 03 56 3e
       -0.17539003 0.120001085 0.2846455 0.20899618
000130 1c e9 2b be 53 b4 8f be 3a a4 d1 3c f5 d0 88 3e
       -0.16788143 -0.28067264 0.025591005 0.26721922
000140 9a 1c df 3d 26 77 9b 3e 6b 09 c2 3d ab 62 ca 3d
       0.10894127 0.3036434 0.094744526 0.09882101
000150 a4 c9 49 3e 21 08 8c be 13 bd 4d be b7 7a 95 be
       0.19705826 -0.27349952 -0.20091657 -0.29195186
000160 51 26 86 3d 84 b7 b0 3d 12 6d 96 3e fc 76 bb bd
       0.06550277 0.08628753 0.2938009 -0.09153554
000170 85 72 6c be 3d 3b c4 bd c3 5e de 3d 87 a4 ac bb
       -0.2309056 -0.09581611 0.10857918 -0.0052686366
000180 f0 03 ef 3c d0 85 08 bd 30 9f 2c 3e 90 49 88 3e
       0.029176682 -0.03333074 0.168576 0.26618624
000190 ca af b9 bb 95 f7 37 be a2 69 12 3e 68 a4 12 3e
       -0.0056667076 -0.17965539 0.14298108 0.14320529
0001a0 0f a1 18 3d 9a 20 31 be c4 eb 47 3e 01 68 8e 3e
       0.037262972 -0.17297593 0.19523531 0.27813724
0001b0 ed 51 21 be bc 19 21 3e e3 65 4a be 5f c9 7c 3d
       -0.15753908 0.15732473 -0.19765429 0.06171548
0001c0 04 43 aa 3d 0b ee 98 be 1a f5 1f 3e b4 72 87 be
       0.083135635 -0.29869112 0.15620843 -0.264547
0001d0 de 1f 81 3e e5 fd 50 be d9 0b 2b be dc 47 1c 3e
       0.25219625 -0.20409353 -0.16703738 0.15261787
0001e0 18 44 1e 3e 31 5e 15 3d 35 00 01 bd 1c df 43 ba
       0.15455663 0.03646678 -0.031494338 -0.00074719056
0001f0 a5 16 54 3e 0e d0 3f 3e 70 cf 3d be 31 1c 46 3d
       0.20711763 0.1873171 -0.18536162 0.04836673
000200 26 5f 0d be fc b2 d6 3d f6 b8 a5 bd d4 df 86 3e
       -0.13805827 0.10483357 -0.08091919 0.26342642
000210 d1 d5 15 be d3 88 6c 3e 06 9e 8c be 69 49 6c be
       -0.14632346 0.2309907 -0.27464312 -0.23074879
000220 10 c0 83 be 80 3d 92 3d b1 13 d0 bd 19 36 8e 3e
       -0.2573247 0.071406364 -0.10160006 0.27775648
000230 86 7a 49 3e db d3 7e 3e 4a f0 84 3d f7 14 30 be
       0.19675645 0.24885504 0.06491144 -0.17195497
000240 e8 e6 1b 3e b0 7b 2c 3e de d5 f0 3d 66 ea 15 3e
       0.15224802 0.16844058 0.11759542 0.14640197
000250 d5 7f 1f 3e bb a8 c1 3d 08 dd 8d be 5f 9e 91 be
       0.15576108 0.09456011 -0.27707696 -0.2844114
000260 3c b1 12 3e f2 68 23 3e 1f f3 1c be 61 c0 6a be
       0.14325422 0.15958002 -0.15327118 -0.22924949
000270 88 27 de 3d 48 94 28 bd 82 09 80 be f3 7a 59 3e
       0.10847384 -0.041157037 -0.25007254 0.21238308
000280 41 83 47 3e f0 a4 38 be 00 dc 48 3b f8 a4 d4 bd
       0.19483663 -0.18031669 0.0030648708 -0.10383028
000290 1c bb c6 bd 9e 22 ea bd 1e b2 f5 bd e8 4b 54 3d
       -0.09703657 -0.11432384 -0.11996864 0.051830202
0002a0 30 fb d8 3d e8 d1 41 bd 0d f4 03 be 46 b5 92 be
       0.10594785 -0.047319323 -0.12886067 -0.28653926
0002b0 d4 36 e4 bd e2 f0 85 3e 58 be ac 3d 58 74 8c bd
       -0.1114327 0.26160342 0.08434743 -0.06858128
0002c0 0a f6 26 3e 9c 38 49 3e 59 f3 02 be ac 58 7c bd
       0.16304794 0.19650501 -0.12788142 -0.061608
0002d0 fa 50 91 be 09 0d 23 be 44 25 1f 3e 11 48 30 3d
       -0.28382093 -0.15922941 0.1554156 0.043037478
0002e0 19 e6 ae 3d 8a 06 21 be 90 15 36 bd 3a 33 ea bd
       0.085399814 -0.1572515 -0.044454157 -0.11435552
0002f0 8a 83 9a bd ea 36 37 be 59 cb 7d bb a3 3f 95 be
       -0.0754462 -0.17892042 -0.003872594 -0.29150113
